…
n see in this fine tuning guide.PaliGemma ArchitecturePaliGemma adds an additional vision model to the BaseGemma model, which consists of an image encoder. This encoder along with the text tokens is passed to a specialized Gemma 2B model. Both the Vision Model and Gemma model are trained in various stages both independently, and together, to produce the final joint architecture. For full details see Section 3.2 of the Pali-3 paper PaliGemmaForConditionalGeneration( (vision_tower): SiglipVisionModel( (vision_model): SiglipVisionTransformer( (embeddings): SiglipVisionEmbeddings( (patch_embedding): Conv2d(3, 1152, kernel_size=(14, 14), stride=(14, 14), padding=valid) (position_embedding): Embedding(256, 1152) ) (encoder): SiglipEncoder( (layers): ModuleList( (0-26): 27 x SiglipEncoderLayer( (self_attn): SiglipAttention( (k_proj): Linear(in_features=1152, out_features=1152, bias=True) (v_proj): Linear(in_features=1152, out_features=1152, bias=True) (q_proj): Linear(in_features=1152, out_features=1152, bias=True) (out_proj): Linear(in_features=1152, out_features=1152, bias=True) ) (layer_norm1): LayerNorm((1152,), eps=1e-06, elementwise_affine=True) (mlp): SiglipMLP( (activation_fn): PytorchGELUTanh() (fc1): Linear(in_features=1152, out_features=4304, bias=True) (fc2): Linear(in_features=4304, out_features=1152, bias=True) ) (layer_norm2): LayerNorm((1152,), eps=1e-06, elementwise_affine=True) ) ) ) (post_layernorm): LayerNorm((1152,), eps=1e-06, elementwise_affine=True) ) ) (multi_modal_projector): PaliGemmaMultiModalProjector( (linear): Linear(in_features=1152, out_features=2048, bias=True) ) (language_model): GemmaForCausalLM( (model): GemmaModel( (embed_tokens): Embedding(257216, 2048, padding_idx=0) (layers): ModuleList( (0-17): 18 x GemmaDecoderLayer( (self_attn): GemmaSdpaAttention( (q_proj): Linear(in_features=2048, out_features=2048, bias=False) (k_proj): Linear(in_features=2048, out_features=256, bias=False) (v_proj): Linear(in_features=2048, out_features=256, bias=False) (o_proj): Linear(in_features=2048, out_features=2048, bias=False) (rotary_emb): GemmaRotaryEmbedding() ) (mlp): GemmaMLP( (gate_proj): Linear(in_features=2048, out_features=16384, bias=False) (up_proj): Linear(in_features=2048, out_features=16384, bias=False) (down_proj): Linear(in_features=16384, out_features=2048, bias=False) (act_fn): PytorchGELUTanh() ) (input_layernorm): GemmaRMSNorm() (post_attention_layernorm): GemmaRMSNorm() ) ) (norm): GemmaRMSNorm() ) (lm_head): Linear(in_features=2048, out_features=257216, bias=False) ) ) vision_tower (SiglipVisionModel)This component is responsible for processing the input image.It uses SiglipVisionTransformer which is a type of transformer architecture designed for vision tasks.embeddings (SiglipVisionEmbeddings)PaliGemma takes as input one or more images, which are turned into “soft tokens” by the SigLIP encoder.It breaks th
…
