…
within a reasonable range, leading to more stable and effective training.Grouped-Query Attention (GQA)This technique helps the model process information more efficiently, especially when dealing with large amounts of text. It improves upon traditional multi-head attention(MHA) by grouping queries together, enabling faster processing, especially for large models. It’s like dividing a large task into smaller, more manageable chunks, allowing the model to understand the relationships between words faster without sacrificing accuracy.Gemma 27B Gemma2ForCausalLM( (model): Gemma2Model( (embed_tokens): Embedding(256000, 4608, padding_idx=0) (layers): ModuleList( (0-45): 46 x Gemma2DecoderLayer( (self_attn): Gemma2SdpaAttention( (q_proj): Linear(in_features=4608, out_features=4096, bias=False) (k_proj): Linear(in_features=4608, out_features=2048, bias=False) (v_proj): Linear(in_features=4608, out_features=2048, bias=False) (o_proj): Linear(in_features=4096, out_features=4608, bias=False) (rotary_emb): Gemma2RotaryEmbedding() ) (mlp): Gemma2MLP( (gate_proj): Linear(in_features=4608, out_features=36864, bias=False) (up_proj): Linear(in_features=4608, out_features=36864, bias=False) (down_proj): Linear(in_features=36864, out_features=4608, bias=False) (act_fn): PytorchGELUTanh() ) (input_layernorm): Gemma2RMSNorm() (post_attention_layernorm): Gemma2RMSNorm() (pre_feedforward_layernorm): Gemma2RMSNorm() (post_feedforward_layernorm): Gemma2RMSNorm() ) ) (norm): Gemma2RMSNorm() ) (lm_head): Linear(in_features=4608, out_features=256000, bias=False) ) self_attnIn the self-attention mechanism, Gemma 2 uses Grouped Query Attention (GQA).k_proj and v_proj share the same head with a size of 128 and 16 heads (128 x 16 = 2048). In contrast, q_proj and o_proj have 32 heads (128 x 32 = 4096) in parallel.Note that the Gemma 9B model uses the Same GQA but different number of heads(8 for k_proj and v_proj, 16 for q_proj and o_proj) and head size (256) (self_attn): Gemma2SdpaAttention( (q_proj): Linear(in_features=3584, out_features=4096, bias=False) (k_proj): Linear(in_features=3584, out_features=2048, bias=False) (v_proj): Linear(in_features=3584, out_features=2048, bias=False) (o_proj): Linear(in_features=4096, out_features=3584, bias=False) (rotary_emb): Gemma2RotaryEmbedding() ) The 2B model uses 4 for k_proj and v_proj, 8 for q_proj and o_proj and head size (256)pre_feedforward_layernorm and post_feedforward_layernormAnother significant distinction is the inclusion of additional RMSNorm in Gemma 2, which enhances the stability of the training process.Key FindingsOur technical report 
…
