…
icity, we applied an expansion factor of 3 in the Recurrent Gemma model, resulting in an MLP dimension of 7680 (calculated as 2560 x 3).Local attention window sizeThe state maintained by RecurrentGemma has a finite size and does not grow with sequences longer than the local attention window of 2k tokens. This means that while the maximum length of samples generated autoregressively by Gemma is limited by the host system's memory capacity, RecurrentGemma can generate sequences of arbitrary length, overcoming this constraint. RecurrentGemmaForCausalLM( (model): RecurrentGemmaModel( (embed_tokens): Embedding(256000, 2560, padding_idx=0) (layers): ModuleList( (0-1): 2 x RecurrentGemmaDecoderLayer( (temporal_pre_norm): RecurrentGemmaRMSNorm() (temporal_block): RecurrentGemmaRecurrentBlock( (linear_y): Linear(in_features=2560, out_features=2560, bias=True) (linear_x): Linear(in_features=2560, out_features=2560, bias=True) (linear_out): Linear(in_features=2560, out_features=2560, bias=True) (conv_1d): Conv1d(2560, 2560, kernel_size=(4,), stride=(1,), padding=(3,), groups=2560) (rg_lru): RecurrentGemmaRglru() (act_fn): PytorchGELUTanh() ) (channel_pre_norm): RecurrentGemmaRMSNorm() (mlp_block): RecurrentGemmaMlp( (gate_proj): Linear(in_features=2560, out_features=7680, bias=True) (up_proj): Linear(in_features=2560, out_features=7680, bias=True) (down_proj): Linear(in_features=7680, out_features=2560, bias=True) (act_fn): PytorchGELUTanh() ) ) (2): RecurrentGemmaDecoderLayer( (temporal_pre_norm): RecurrentGemmaRMSNorm() (temporal_block): RecurrentGemmaSdpaAttention( (q_proj): Linear(in_features=2560, out_features=2560, bias=False) (k_proj): Linear(in_features=2560, out_features=256, bias=False) (v_proj): Linear(in_features=2560, out_features=256, bias=False) (o_proj): Linear(in_features=2560, out_features=2560, bias=True) (rotary_emb): RecurrentGemmaRotaryEmbedding() ) (channel_pre_norm): RecurrentGemmaRMSNorm() (mlp_block): RecurrentGemmaMlp( (gate_proj): Linear(in_features=2560, out_features=7680, bias=True) (up_proj): Linear(in_features=2560, out_features=7680, bias=True) (down_proj): Linear(in_features=7680, out_features=2560, bias=True) (act_fn): PytorchGELUTanh() ) ) : (23): RecurrentGemmaDecoderLayer( (temporal_pre_norm): RecurrentGemmaRMSNorm() (temporal_block): RecurrentGemmaSdpaAttention( (q_proj): Linear(in_features=2560, out_features=2560, bias=False) (k_proj): Linear(in_features=2560, out_features=256, bias=False) (v_proj): Linear(in_features=2560, out_features=256, bias=False) (o_proj): Linear(in_features=2560, out_features=2560, bias=True) (rotary_emb): RecurrentGemmaRotaryEmbedding() ) (channel_pre_norm): RecurrentGemmaRMSNorm() (mlp_block): RecurrentGemmaMlp( (gate_proj): Linear(in_features=2560, out_features=7680, bias=True) (up_proj): Linear(in_features=2560, out_features=7680, bias=True) (down_proj): Linear(in_features=7680, out_features=2560, bias=True) (act_fn): PytorchGELUTanh() ) ) (24-25): 2 x RecurrentGemmaDecoderLayer( (temporal_pre_norm): RecurrentGemmaRMSNorm() (temporal_block): RecurrentGemmaRecurrentBlock( (linear_y): Linear(in_features=2560, out_features=2560, bias=True) (linear_x): Linear(in_features=2560, out_features=2560, bias=True) (linear_out): Linear(in_features=2560, out_features=2560, bias=True) (conv_1d): Conv1d(2560, 2560, kernel_size=(4,), stride=(1,), padding=(3,), groups=2560) (rg_lru): RecurrentGemmaRglru() (act_fn): PytorchGELUTanh() ) (channel_pre_norm): RecurrentGemmaRMSNorm() (mlp_block): RecurrentGemmaMlp( (gate_proj): Linear(in_features=2560, out_features=7680, bias=True) (up_proj): Linear(in_features=2560, out_features=7680, bias=True) (down_proj): Linear(in_features=7680, out_features=2560, bias=True) (act_fn): PytorchGELUTanh() ) ) ) (final_norm): RecurrentGemmaRMSNorm() ) (lm_head): Linear(in_features=2560, out_features=256000, bias=False) ) embed_tokens (Embedding Layer)Takes the input text as a sequence of tokens and maps each token to a continuous vector representation of size 2560. It has a vocabulary size of 256000 which is the same with base Gemma models.layersThere are 26 decoder layers in total, grouped into repeating patterns.The model begins with two residual blocks with a
…
