…
3 has improved multilingual capabilities due to a revisited data mixture with an increased amount of multilingual data (both monolingual and parallel).Gemma 3 also introduces an improved tokenizer. The vocabulary size has been changed to 262k, but uses the same SentencePiece tokenizer. To avoid errors, use the new tokenizer with Gemma 3. This is the same tokenizer as Gemini which is more balanced for non-English languages.Gemma 3 27B Gemma3ForConditionalGeneration( (vision_tower): SiglipVisionModel( (vision_model): SiglipVisionTransformer( (embeddings): SiglipVisionEmbeddings( (patch_embedding): Conv2d(3, 1152, kernel_size=(14, 14), stride=(14, 14), padding=valid) (position_embedding): Embedding(4096, 1152) ) (encoder): SiglipEncoder( (layers): ModuleList( (0-26): 27 x SiglipEncoderLayer( (self_attn): SiglipSdpaAttention( (k_proj): Linear(in_features=1152, out_features=1152, bias=True) (v_proj): Linear(in_features=1152, out_features=1152, bias=True) (q_proj): Linear(in_features=1152, out_features=1152, bias=True) (out_proj): Linear(in_features=1152, out_features=1152, bias=True) ) (layer_norm1): LayerNorm((1152,), eps=1e-06, elementwise_affine=True) (mlp): SiglipMLP( (activation_fn): PytorchGELUTanh() (fc1): Linear(in_features=1152, out_features=4304, bias=True) (fc2): Linear(in_features=4304, out_features=1152, bias=True) ) (layer_norm2): LayerNorm((1152,), eps=1e-06, elementwise_affine=True) ) ) ) (post_layernorm): LayerNorm((1152,), eps=1e-06, elementwise_affine=True) ) ) (multi_modal_projector): Gemma3MultiModalProjector( (mm_soft_emb_norm): Gemma3RMSNorm((1152,), eps=1e-06) (avg_pool): AvgPool2d(kernel_size=4, stride=4, padding=0) ) (language_model): Gemma3ForCausalLM( (model): Gemma3TextModel( (embed_tokens): Gemma3TextScaledWordEmbedding(262208, 5376, padding_idx=0) (layers): ModuleList( (0-61): 62 x Gemma3DecoderLayer( (self_attn): Gemma3Attention( (q_proj): Linear(in_features=5376, out_features=4096, bias=False) (k_proj): Linear(in_features=5376, out_features=2048, bias=False) (v_proj): Linear(in_features=5376, out_features=2048, bias=False) (o_proj): Linear(in_features=4096, out_features=5376, bias=False) (q_norm): Gemma3RMSNorm((128,), eps=1e-06) (k_norm): Gemma3RMSNorm((128,), eps=1e-06) ) (mlp): Gemma3MLP( (gate_proj): Linear(in_features=5376, out_features=21504, bias=False) (up_proj): Linear(in_features=5376, out_features=21504, bias=False) (down_proj): Linear(in_features=21504, out_features=5376, bias=False) (act_fn): PytorchGELUTanh() ) (input_layernorm): Gemma3RMSNorm((5376,), eps=1e-06) (post_attention_layernorm): Gemma3RMSNorm((5376,), eps=1e-06) (pre_feedforward_layernorm): Gemma3RMSNorm((5376,), eps=1e-06) (post_feedforward_layernorm): Gemma3RMSNorm((5376,), eps=1e-06) ) ) (norm): Gemma3RMSNorm((5376,), eps=1e-06) (rotary_emb): Gemma3RotaryEmbedding() (rotary_emb_local): Gemma3RotaryEmbedding() ) (lm_head): Linear(in_features=5376, out_features=262208, bias=False) ) ) Copied Note: Technically RoPE (Rotary Positional Embedding) is inside the SDPA(Scaled Dot-Product Attention), but we simplified it in this diagram. Please see the code for the precise architectural details.Gemma 3 1B Gemma3ForCausalLM( (model): Gemma3TextModel( (embed_tokens): Gemma3TextScaledWordEmbedding(262144, 1152, padding_idx=0) (layers): ModuleList( (0-25): 26 x Gemma3DecoderLayer( (self_attn): Gemma3Attention( (q_proj): Linear(in_features=1152, out_features=1024, bias=False) (k_proj): Linear(in_features=1152, out_features=256, bias=False) (v_proj): Linear(in_features=1152, out_features=256, bias=False) (o_proj): Linear(in_features=1024, out_features=1152, bias=False) (q_norm): Gemma3RMSNorm((256,), eps=1e-06) (k_norm): Gemma3RMSNorm((256,), eps=1e-06) ) (mlp): Gemma3MLP( (gate_proj): Linear(in_features=1152, out_features=6912, bias=False) (up_proj): Linear(in_features=1152, out_features=6912, bias=False) (down_proj): Linear(in_features=6912, out_features=1152, bias=False) (act_fn): PytorchGELUTanh() ) (input_layernorm): Gemma3RMSNorm((1152,), eps=1e-06) (post_attention_layernorm): Gemma3RMSNorm((1152,), eps=1e-06) (pre_feedforward_layernorm): Gemma3RMSNorm((1152,), eps=1e-06) (post_feedforward_layernorm): Gemma3RMSNorm((1152,), eps=1e-06) ) ) (norm): Gemma3RMSNorm((1152,), eps=1e-06) (rotary_emb): Gemma3RotaryEmbedding() (rotary_emb_local): Gemma3RotaryEmbedding() ) (lm_head): Linear(in_features=1152, out_features=262144, bias=False) ) Copied This text-only 1B model is specifically optimized for on-device use, making advanced AI accessible on mobile and embedded systems. This significantly impacts accessibility, privacy, and performance, as AI-powered applications can now function efficiently even with limited or no network connectivity.Key FindingsOur technical report provide
…
